…
/Users/alist/Documents/MIT/Classes/Spring19/6835/MMCheckComp/venv/lib/python3.6/site-packages/h5py/__init__.py:36: FutureWarning: Conversion of the second argument of issubdtype from `float` to `np.floating` is deprecated. In future, it will be treated as `np.float64 == np.dtype(float).type`.
  from ._conv import register_converters as _register_converters
frame_size 60, validation_split 0.250000, batch_size 32, epochs 15, lstm_units 20
dataset: ['./processed-data/df-framed-0.npy', './processed-data/df-framed-1.npy']
ct of y_train = gesture is 2076/9120 and ct of y_test = gesture is 609/3008
INFO:plaidml:Opening device "metal_amd_radeon_pro_460.0"
_________________________________________________________________
Layer (type)                 Output Shape              Param #   
=================================================================
conv2d_1 (Conv2D)            (None, 60, 16, 2)         10        
_________________________________________________________________
max_pooling2d_1 (MaxPooling2 (None, 30, 8, 2)          0         
_________________________________________________________________
conv2d_2 (Conv2D)            (None, 30, 8, 4)          36        
_________________________________________________________________
max_pooling2d_2 (MaxPooling2 (None, 15, 4, 4)          0         
_________________________________________________________________
conv2d_3 (Conv2D)            (None, 15, 4, 8)          136       
_________________________________________________________________
max_pooling2d_3 (MaxPooling2 (None, 7, 2, 8)           0         
_________________________________________________________________
flatten_1 (Flatten)          (None, 112)               0         
_________________________________________________________________
dense_1 (Dense)              (None, 2)                 226       
=================================================================
Total params: 408
Trainable params: 408
Non-trainable params: 0
_________________________________________________________________
Train on 9120 samples, validate on 3008 samples
Epoch 1/15

  32/9120 [..............................] - ETA: 12:47 - loss: 161.5359 - acc: 0.7812
 128/9120 [..............................] - ETA: 3:13 - loss: 157.9839 - acc: 0.8047 
…
